…
/usr/local/lib/python3.12/dist-packages/keras/src/layers/convolutional/base_conv.py:113: UserWarning: Do not pass an `input_shape`/`input_dim` argument to a layer. When using Sequential models, prefer using an `Input(shape)` object as the first layer in the model instead.
  super().__init__(activity_regularizer=activity_regularizer, **kwargs)

Model: "sequential_6"

┏━━━━━━━━━━━━━━━━━━━━━━━━━━━━━━━━━┳━━━━━━━━━━━━━━━━━━━━━━━━┳━━━━━━━━━━━━━━━┓
┃ Layer (type)                    ┃ Output Shape           ┃       Param # ┃
┡━━━━━━━━━━━━━━━━━━━━━━━━━━━━━━━━━╇━━━━━━━━━━━━━━━━━━━━━━━━╇━━━━━━━━━━━━━━━┩
│ conv2d_54 (Conv2D)              │ (None, 128, 128, 32)   │           896 │
├─────────────────────────────────┼────────────────────────┼───────────────┤
│ batch_normalization_58          │ (None, 128, 128, 32)   │           128 │
│ (BatchNormalization)            │                        │               │
├─────────────────────────────────┼────────────────────────┼───────────────┤
│ conv2d_55 (Conv2D)              │ (None, 128, 128, 32)   │         9,248 │
├─────────────────────────────────┼────────────────────────┼───────────────┤
│ batch_normalization_59          │ (None, 128, 128, 32)   │           128 │
│ (BatchNormalization)            │                        │               │
├─────────────────────────────────┼────────────────────────┼───────────────┤
│ max_pooling2d_28 (MaxPooling2D) │ (None, 64, 64, 32)     │             0 │
├─────────────────────────────────┼────────────────────────┼───────────────┤
│ dropout_41 (Dropout)            │ (None, 64, 64, 32)     │             0 │
├─────────────────────────────────┼────────────────────────┼───────────────┤
│ conv2d_56 (Conv2D)              │ (None, 64, 64, 64)     │        18,496 │
├─────────────────────────────────┼────────────────────────┼───────────────┤
│ batch_normalization_60          │ (None, 64, 64, 64)     │           256 │
│ (BatchNormalization)            │                        │               │
├─────────────────────────────────┼────────────────────────┼───────────────┤
│ conv2d_57 (Conv2D)              │ (None, 64, 64, 64)     │        36,928 │
├─────────────────────────────────┼────────────────────────┼───────────────┤
│ batch_normalization_61          │ (None, 64, 64, 64)     │           256 │
│ (BatchNormalization)            │                        │               │
├─────────────────────────────────┼────────────────────────┼───────────────┤
│ max_pooling2d_29 (MaxPooling2D) │ (None, 32, 32, 64)     │             0 │
├─────────────────────────────────┼────────────────────────┼───────────────┤
│ dropout_42 (Dropout)            │ (None, 32, 32, 64)     │             0 │
├─────────────────────────────────┼────────────────────────┼───────────────┤
│ conv2d_58 (Conv2D)              │ (None, 32, 32, 128)    │        73,856 │
├─────────────────────────────────┼────────────────────────┼───────────────┤
│ batch_normalization_62          │ (None, 32, 32, 128)    │           512 │
│ (BatchNormalization)            │                        │               │
├─────────────────────────────────┼────────────────────────┼───────────────┤
│ conv2d_59 (Conv2D)              │ (None, 32, 32, 128)    │       147,584 │
├─────────────────────────────────┼────────────────────────┼───────────────┤
│ batch_normalization_63          │ (None, 32, 32, 128)    │           512 │
│ (BatchNormalization)            │                        │               │
├─────────────────────────────────┼────────────────────────┼───────────────┤
│ max_pooling2d_30 (MaxPooling2D) │ (None, 16, 16, 128)    │             0 │
├─────────────────────────────────┼────────────────────────┼───────────────┤
│ dropout_43 (Dropout)            │ (None, 16, 16, 128)    │             0 │
├─────────────────────────────────┼────────────────────────┼───────────────┤
│ conv2d_60 (Conv2D)              │ (None, 16, 16, 256)    │       295,168 │
├─────────────────────────────────┼────────────────────────┼───────────────┤
│ batch_normalization_64          │ (None, 16, 16, 256)    │         1,024 │
│ (BatchNormalization)            │                        │               │
├─────────────────────────────────┼────────────────────────┼───────────────┤
│ conv2d_61 (Conv2D)              │ (None, 16, 16, 256)    │       590,080 │
├─────────────────────────────────┼────────────────────────┼───────────────┤
│ batch_normalization_65          │ (None, 16, 16, 256)    │         1,024 │
│ (BatchNormalization)            │                        │               │
├─────────────────────────────────┼────────────────────────┼───────────────┤
│ max_pooling2d_31 (MaxPooling2D) │ (None, 8, 8, 256)      │             0 │
├─────────────────────────────────┼────────────────────────┼───────────────┤
│ dropout_44 (Dropout)            │ (None, 8, 8, 256)      │             0 │
├─────────────────────────────────┼────────────────────────┼───────────────┤
│ flatten_1 (Flatten)             │ (None, 16384)          │             0 │
├─────────────────────────────────┼────────────────────────┼───────────────┤
│ dense_20 (Dense)                │ (None, 512)            │     8,389,120 │
├─────────────────────────────────┼────────────────────────┼───────────────┤
│ batch_normalization_66          │ (None, 512)            │         2,048 │
│ (BatchNormalization)            │                        │               │
├─────────────────────────────────┼────────────────────────┼───────────────┤
│ dropout_45 (Dropout)            │ (None, 512)            │             0 │
├─────────────────────────────────┼────────────────────────┼───────────────┤
│ dense_21 (Dense)                │ (None, 256)            │       131,328 │
├─────────────────────────────────┼────────────────────────┼───────────────┤
│ batch_normalization_67          │ (None, 256)            │         1,024 │
│ (BatchNormalization)            │                        │               │
├─────────────────────────────────┼────────────────────────┼───────────────┤
│ dropout_46 (Dropout)            │ (None, 256)            │             0 │
├─────────────────────────────────┼────────────────────────┼───────────────┤
│ dense_22 (Dense)                │ (None, 128)            │        32,896 │
├─────────────────────────────────┼────────────────────────┼───────────────┤
│ dropout_47 (Dropout)            │ (None, 128)            │             0 │
├─────────────────────────────────┼────────────────────────┼───────────────┤
│ dense_23 (Dense)                │ (None, 4)              │           516 │
└─────────────────────────────────┴────────────────────────┴───────────────┘

 Total params: 9,733,028 (37.13 MB)

 Trainable params: 9,729,572 (37.12 MB)

 Non-trainable params: 3,456 (13.50 KB)

Model compiled!
  Optimizer    : Adam (lr=0.0008)  ✅ increased from 0.0005
  Loss         : categorical_crossentropy
  Metrics      : accuracy
Callbacks ready!
  ✔ EarlyStopping     patience=7
  ✔ ReduceLROnPlateau patience=3, factor=0.5
…
